…
nits              = 1, \n        kernel_initializer = \"uniform\", \n        activation         = \"sigmoid\") %>% \n    # Compile ANN\n    compile(\n        optimizer = 'adam',\n        loss      = 'binary_crossentropy',\n        metrics   = c('accuracy')\n    )\nmodel_keras\n\n#> Model: \"sequential\"\n#> ________________________________________________________________________________\n#>  Layer (type)                       Output Shape                    Param #     \n#> ================================================================================\n#>  dense_2 (Dense)                    (None, 16)                      816         \n#>  dropout_1 (Dropout)                (None, 16)                      0           \n#>  dense_1 (Dense)                    (None, 16)                      272         \n#>  dropout (Dropout)                  (None, 16)                      0           \n#>  dense (Dense)                      (None, 1)                       17          \n#> ================================================================================\n#> Total params: 1,105\n#> Trainable params: 1,105\n#> Non-trainable params: 0\n#> ________________________________________________________________________________\n\n\n\n1 Fit the keras model to the training data\n\nx_train_matrix = as.matrix(x_train_tbl)\ny_train_matrix = as.matrix(y_train_vec)\nx_te
…
